Model: "model"
_________________________________________________________________
Layer (type)                 Output Shape              Param #   
=================================================================
input_1 (InputLayer)         [(None, 365, 3)]          0         
_________________________________________________________________
conv1d_1 (Conv1D)            (None, 363, 8)            80        
_________________________________________________________________
max_pooling1d (MaxPooling1D) (None, 181, 8)            0         
_________________________________________________________________
conv1d_2 (Conv1D)            (None, 179, 8)            200       
_________________________________________________________________
max_pooling1d_1 (MaxPooling1 (None, 89, 8)             0         
_________________________________________________________________
conv1d_3 (Conv1D)            (None, 87, 16)            400       
_________________________________________________________________
max_pooling1d_2 (MaxPooling1 (None, 43, 16)            0         
_________________________________________________________________
conv1d_4 (Conv1D)            (None, 41, 16)            784       
_________________________________________________________________
max_pooling1d_3 (MaxPooling1 (None, 20, 16)            0         
_________________________________________________________________
conv1d_5 (Conv1D)            (None, 18, 32)            1568      
_________________________________________________________________
max_pooling1d_4 (MaxPooling1 (None, 9, 32)             0         
_________________________________________________________________
flatten (Flatten)            (None, 288)               0         
_________________________________________________________________
dense (Dense)                (None, 1)                 289       
=================================================================
Total params: 3,321
Trainable params: 3,321
Non-trainable params: 0
_________________________________________________________________
Start of epoch 0

 Epoch 0: Train loss: 4.6315  Validation Loss: 3.4820, Train PCC: -0.0300, Validation PCC -0.0112
Time taken for epoch 0 is 0.20 minutes
Start of epoch 1

 Epoch 1: Train loss: 4.4751  Validation Loss: 3.5026, Train PCC: -0.0302, Validation PCC -0.0135
…
